DAY12/FINAL PRODUCT + FIREBASE  +  TESTING/backend1/device_severity_model.tflite (tflite, 1424 bytes, 2 tensors)

sequential_1/dense_1/BiasAdd/ReadVariableOp f4 [3]
00000000: 6f27 8c3e fb34 21bf f72a c83e
0.27373835 -0.62971467 0.3909528

sequential_1/dense_1/MatMul f4 [3, 8]
00000000: 7413 dd3c 42fb 80be 8447 b93e 0b41 eebe
00000010: 1267 033e ee52 543e 0e94 2bbd b177 bc3e
00000020: 82b2 c53c 5bd5 80be a191 ab3e f648 eebe
00000030: c7bd 033e 3593 283e d601 23bd 4cb1 b53f
00000040: 78cd 453c 7bc2 80be 8457 ec3e dc37 eebe
00000050: f3b6 033e 9282 343e ce71 2f3e f9d0 9bbf
0.026986815 -0.25191694 0.36187375 -0.46534 0.12832287 0.2073476 -0.041889243 0.36810067
0.02413297 -0.25162777 0.33509544 -0.4654004 0.12865363 0.16462405 -0.039796673 1.4194732
0.012072913 -0.25148377 0.4616052 -0.46526992 0.12862758 0.17627934 0.17133257 -1.2173148
